…
Creating features and labels...
Building the arq...
LSTMModel(
  (embedding): Embedding(7649, 128, padding_idx=0)
  (bilstm): LSTM(128, 150, batch_first=True, bidirectional=True)
  (lstm): LSTM(300, 100)
  (dropout): Dropout(p=0.3, inplace=False)
  (fc): Linear(in_features=100, out_features=7649, bias=True)
)
==========================================================================================
Layer (type:depth-idx)                   Output Shape              Param #
==========================================================================================
LSTMModel                                [32, 7649]                --
├─Embedding: 1-1                         [32, 37, 128]             979,072
├─LSTM: 1-2                              [32, 37, 300]             336,000
├─LSTM: 1-3                              [32, 37, 100]             160,800
├─Dropout: 1-4                           [32, 100]                 --
├─Linear: 1-5                            [32, 7649]                772,549
==========================================================================================
Total params: 2,248,421
Trainable params: 2,248,421
Non-trainable params: 0
Total mult-adds (Units.MEGABYTES): 644.26
==========================================================================================
Input size (MB): 0.01
Forward/backward pass size (MB): 6.96
Params size (MB): 8.99
Estimated Total Size (MB): 15.96
…
